file/model/gcn_seq2seq/model_state_dict.pth (torch_old, 69550 bytes, 36 tensors)

gcn_layer.gcn_block.L f4 [9, 9]
00000000: 0000 803f cdcc 4cbe cdcc 4cbe cdcc 4cbe
00000010: cdcc 4cbe cdcc 4cbe 0000 0000 0000 0000
00000020: 0000 0000 cdcc 4cbe 0000 803f cdcc 4cbe
00000030: cdcc 4cbe cdcc 4cbe cdcc 4cbe 0000 0000
00000040: 0000 0000 0000 0000 cdcc 4cbe cdcc 4cbe
00000050: 0000 803f cdcc 4cbe cdcc 4cbe cdcc 4cbe
00000060: 0000 0000 0000 0000 0000 0000 cdcc 4cbe
00000070: cdcc 4cbe cdcc 4cbe 0000 803f cdcc 4cbe
00000080: cdcc 4cbe 0000 0000 0000 0000 0000 0000
00000090: cdcc 4cbe cdcc 4cbe cdcc 4cbe cdcc 4cbe
000000a0: 0000 803f cdcc 4cbe 0000 0000 0000 0000
000000b0: 0000 0000 cdcc 4cbe cdcc 4cbe cdcc 4cbe
000000c0: cdcc 4cbe cdcc 4cbe 0000 803f 0000 0000
000000d0: 0000 0000 0000 0000 2549 12be 2549 12be
000000e0: 2549 12be 2549 12be 2549 12be 2549 12be
000000f0: 0000 803f 0000 0000 2549 12be 0000 0000
00000100: 0000 0000 cdcc 4cbe 0000 0000 cdcc 4cbe
00000110: cdcc 4cbe cdcc 4cbe 0000 803f cdcc 4cbe
00000120: abaa 2abe abaa 2abe abaa 2abe abaa 2abe
00000130: abaa 2abe abaa 2abe 0000 0000 0000 0000
00000140: 0000 803f
1.0 -0.2 -0.2 -0.2 -0.2 -0.2 0.0 0.0
0.0 -0.2 1.0 -0.2 -0.2 -0.2 -0.2 0.0
0.0 0.0 -0.2 -0.2 1.0 -0.2 -0.2 -0.2
0.0 0.0 0.0 -0.2 -0.2 -0.2 1.0 -0.2
-0.2 0.0 0.0 0.0 -0.2 -0.2 -0.2 -0.2
1.0 -0.2 0.0 0.0 0.0 -0.2 -0.2 -0.2
-0.2 -0.2 1.0 0.0 0.0 0.0 -0.14285715 -0.14285715
-0.14285715 -0.14285715 -0.14285715 -0.14285715 1.0 0.0 -0.14285715 0.0
0.0 -0.2 0.0 -0.2 -0.2 -0.2 1.0 -0.2
-0.16666667 -0.16666667 -0.16666667 -0.16666667 -0.16666667 -0.16666667 0.0 0.0
1.0

gcn_layer.gcn_block.fc_0.weight f4 [6, 1]
00000000: 4bc7 133f 8f80 3a3f 9dcc 793f 0cdd 9d3d
00000010: ec5c 973e feca 7f3e
0.5772597 0.72852415 0.9757784 0.07708177 0.2956308 0.24979779

gcn_layer.gcn_block.bn_0.weight f4 [54]
00000000: bf7d 863f e1e6 523f 9682 803f e857 863f
00000010: c489 903f 5d98 943f ec6b 4f3f b2a7 453f
00000020: ebd2 8d3f 60cc 9f3f 2392 993f 719b 513f
00000030: 6ebd 553f 67fd 8e3f 1416 643f 8edc 883f
00000040: b3bb 9a3f d8d1 9b3f 7f8c 963f cd00 903f
00000050: d882 6b3f f511 8f3f 94cf 933f 756b 823f
00000060: f156 983f ec52 4f3f f600 4e3f 55c7 963f
00000070: 69d7 923f 071c 7a3f aba8 5e3f a5be 953f
00000080: d9b5 963f 6a43 973f e3c1 943f 23b9 543f
00000090: db41 983f f794 783f d67f 7f3f e583 543f
000000a0: 7f83 973f fae2 903f 59fd 573f 2f9c 953f
000000b0: 0d23 953f 8df2 603f d053 943f 5525 583f
000000c0: 11cf 8f3f 3f19 8b3f 252b 863f 7233 6c3f
000000d0: 7007 803f 0681 8e3f
1.0507125 0.82383543 1.0039852 1.0495577 1.1292043 1.1608998 0.8102405 0.7720901
1.1079992 1.2484245 1.1997722 0.8187781 0.8349217 1.1171082 0.8909619 1.0692308
1.2088531 1.2173414 1.1761626 1.1250244 0.91996527 1.1177355 1.1547723 1.0189043
1.1901532 0.80985904 0.80470216 1.1779581 1.1471988 0.97699016 0.86976117 1.1698805
1.1774246 1.1817448 1.162167 0.83094996 1.1895097 0.971023 0.9980444 0.83013755
1.1837004 1.1319268 0.8437095 1.1688288 1.1651322 0.87870103 1.1588078 0.84431964
1.1235067 1.086708 1.0481917 0.92266 1.000227 1.1133125

gcn_layer.gcn_block.bn_0.bias f4 [54]
00000000: 72fd 753d 4d5d 1dbd cab3 c43c 68f9 463a
00000010: a1d1 fd3d 7e9d 393e c5bc 21be 041f 4abe
00000020: 197b 143e 5d64 823e d150 573e b717 3cbe
00000030: 71de 21be c6b4 743e 288b 21be b61a 9f3d
00000040: 1873 483e 8d34 a33e 3081 473e c043 fc3d
00000050: 1eb9 b5bd 675a 3a3e 246e 313e 0bc6 053d
00000060: 05fc 243e 8fa2 47be 8f72 e7bb 32da 373e
00000070: 70ad 1a3e 8c66 843d af60 00be 2487 4d3e
00000080: 8ca3 4f3e 0a4b 443e b486 303e 0db4 2ebe
00000090: 96b5 ba3e 9f56 873e 98fd 513e 30e9 0dbe
000000a0: 9d3f e53e fc80 bf3e 5dc4 0cbe 62db 813e
000000b0: 9e6d ae3e 2cde dd3b 13a7 a73e cdac d23c
000000c0: f81b d73e 393d c93e f8cc f63e 3316 7abd
000000d0: e7bb 023f 8305 a43e
0.060056157 -0.038419057 0.024011511 0.0007590265 0.12393499 0.18126485 -0.15794666 -0.19738394
0.14500083 0.25467196 0.21026923 -0.18368421 -0.15807511 0.23897085 -0.1577574 0.077687666
0.19575155 0.3187603 0.19482875 0.1231761 -0.08873199 0.18198548 0.17327172 0.03265957
0.16111763 -0.19495605 -0.007063217 0.17954329 0.15105224 0.06464872 -0.12536882 0.20071083
0.20277232 0.1916925 0.17238885 -0.17060871 0.36466664 0.26433274 0.20506895 -0.13858485
0.44775096 0.37403095 -0.13746782 0.25362688 0.34068006 0.0067708697 0.32744655 0.025717163
0.42013526 0.39304522 0.48203254 -0.061056327 0.51067966 0.32035455

gcn_layer.gcn_block.bn_0.running_mean f4 [54]
00000000: 6518 4c38 9ef4 8038 1c56 ad38 fa3c da36
00000010: 37a6 d137 786f b037 c911 9637 f5b0 bd37
00000020: c701 ff37 117e 2036 da32 1a37 2dbc 0137
00000030: 84da 9937 286b c237 41aa 0238 8c83 2436
00000040: fb09 1e37 7300 0537 6cd3 26b7 5ce9 52b7
00000050: a9c7 8db7 656e b2b5 4a73 abb6 b339 90b6
00000060: 36fc 38b8 57c2 69b8 851a 9db8 84cd c5b6
00000070: 5e04 beb7 34ea 9fb7 8d5d 01b8 c47a 23b8
00000080: f2be 5bb8 f554 8ab6 76e3 84b7 bcaa 5fb7
00000090: f657 d636 2874 0737 241e 3637 0837 6535
000000a0: c43a 5c36 a949 3936 8c0b 4eb8 712f 82b8
000000b0: 1dfe aeb8 5552 dcb6 e6a6 d3b7 2f1e b2b7
000000c0: df00 2038 4538 4a38 81eb 8738 791a ab36
000000d0: 8d62 a437 7e51 8a37
4.866011e-05 6.149079e-05 8.265322e-05 6.504005e-06 2.4992141e-05 2.1032742e-05 1.7889675e-05 2.2612958e-05
3.0399196e-05 2.3915238e-06 9.190955e-06 7.732812e-06 1.8340776e-05 2.31765e-05 3.1152977e-05 2.4514475e-06
9.419858e-06 7.927522e-06 -9.9435965e-06 -1.2571309e-05 -1.6901484e-05 -1.3294162e-06 -5.1096185e-06 -4.2982515e-06
-4.410391e-05 -5.5732522e-05 -7.491283e-05 -5.8949827e-06 -2.2651799e-05 -1.9063336e-05 -3.0843123e-05 -3.8976563e-05
-5.23915e-05 -4.122611e-06 -1.5841546e-05 -1.3331588e-05 6.387937e-06 8.073672e-06 1.0855063e-05 8.538923e-07
3.281676e-06 2.7610024e-06 -4.912498e-05 -6.20772e-05 -8.344299e-05 -6.5660956e-06 -2.5230878e-05 -2.1233309e-05
3.8147784e-05 4.8212958e-05 6.481168e-05 5.099279e-06 1.9596215e-05 1.648883e-05

gcn_layer.gcn_block.bn_0.running_var f4 [54]
00000000: bed0 da3d 0db3 2e3e c2d1 9d3e d22e fa3a
00000010: a3df e63c 4685 a33c f819 f63d 937b 443e
00000020: 237f b13e 86b0 0c3b 8dd4 013d 5de9 b73c
00000030: 62cf 243d a696 833d d7bc ed3d 7f70 3c3a
00000040: 11e5 2d3c d755 f63b e764 293d d645 873d
00000050: d96a f43d 38b3 413a 78c4 323c f630 fd3b
00000060: 1af1 f83d b6c9 463e 7b96 b33e d353 0e3b
00000070: 475a 033d f90a ba3c 0d9b 833f e22c d23f
00000080: 18e1 3d40 bc7b 963c 23e1 8a3e b3b3 443e
00000090: 9380 703f 9008 c03f 967c 2d40 2c7f 893c
000000a0: 7cc8 7d3e bfba 333e 4cf9 2a3d 9b87 883d
000000b0: 15af f63d a880 433a 776d 343c 2c8d ff3b
000000c0: dfa1 5c3f 952b b03f 3727 1f40 8246 7c3c
000000d0: 10d1 683e fbe1 243e
0.10684346 0.1706049 0.30824095 0.001908744 0.02818281 0.01996101 0.12016672 0.19187765
0.3466731 0.002146752 0.031696845 0.022450143 0.04023684 0.06425218 0.11608284 0.0007188394
0.010613696 0.007517557 0.041355994 0.06605117 0.11934442 0.00073890714 0.0109111 0.007726784
0.121553615 0.19412884 0.35075745 0.0021717444 0.032068517 0.02271031 1.0281693 1.6419947
2.9668636 0.018369548 0.2712489 0.19209175 0.9394619 1.5002613 2.7107291 0.016784273
0.2478351 0.17551707 0.041741654 0.0666649 0.12045113 0.0007457831 0.011012427 0.0077988114
0.86184496 1.37633 2.4867685 0.01539767 0.22736001 0.1610183

gcn_layer.gcn_block.bn_in.weight f4 [9]
00000000: bbd8 3e3f 2f17 463f d1d4 423e 4c50 cc3e
00000010: 6153 093f e728 c23f 71df c63f 54e4 9b3e
00000020: 650b c13f
0.74549454 0.77379125 0.19026496 0.39905012 0.5364285 1.5168732 1.5536939 0.30447638
1.5081602

gcn_layer.gcn_block.bn_in.bias f4 [9]
00000000: 0380 1938 8965 52b7 d6b8 0db7 6684 44b8
00000010: 4caf d6b8 e5c6 abb8 1551 9fb7 3363 fbb8
00000020: 2611 c137
3.6597263e-05 -1.2540616e-05 -8.44729e-06 -4.6853347e-05 -0.00010236967 -8.1909624e-05 -1.8992034e-05 -0.0001198709
2.3015378e-05

gcn_layer.gcn_block.bn_in.running_mean f4 [9]
00000000: 774b d53d 8cc5 ae3d ed42 9c3d 60ce 1f3e
00000010: a135 493e bb98 0d3e 7768 243e 2452 0a3f
00000020: 0cb0 0f3f
0.104147844 0.08533773 0.076299526 0.1560607 0.19649364 0.13827793 0.16055475 0.54031587
0.56128

gcn_layer.gcn_block.bn_in.running_var f4 [9]
00000000: 5b8d 043c a81c 4f3b 0eca 343c c095 f83b
00000010: e4f7 173c 52e5 813c b762 103c 616d 3f3c
00000020: d7b4 3f3d
0.008090342 0.0031602774 0.011034502 0.007586211 0.00927541 0.015856419 0.008812598 0.011683793
0.04680332

exog_encoder.weight_ih_l0 f4 [32, 18]
00000000: 7ec1 8dbd d729 a0bc 7671 a73e f27f d73e
00000010: 1900 99bd b0d2 09bb 3362 ee3e 5adc 883e
00000020: d59e 87bd 48d2 373e b815 8dbd 1a5d 69bd
00000030: 3645 a03e e7b3 993d e13f 01bd 4edd 72be
00000040: 4f45 ca3d 783d f33e 2a78 fb3e 37a4 153d
00000050: 45cd 89bd b480 ec3e d0b6 ed3d f9c7 2a3e
00000060: 6f41 96bd b825 fc3e 5a21 433c ca8b bebd
00000070: 6f28 133e d29d 25be fb62 dc3e 65b1 b23e
00000080: a4cd 283e 2b2f 89bd 3779 8a3e 883c a3bc
00000090: aff9 863e edc4 a23e 6ddc a83e 9969 8cbe
000000a0: 793b 51be 91f7 adbd df70 b0bd 9803 4cbe
000000b0: ca92 c23e 6304 cb3e 46aa 13be 4462 ba3d
000000c0: 00a6 21be 7f3e 0d3e 2d6c 3d3d d7f6 b83b
000000d0: cb19 9abd e8c1 abbc c2dd 3a3d 6d72 ccbd
000000e0: 730e 72be 9e1c 8abd cc18 54be ecf2 fb3d
000000f0: 4e87 5a3e c638 163d 008c ba3e 2fa5 3fbe
00000100: d16b 5b3e b179 82bd 5569 883e e4fa 5ebc
00000110: fcd1 aabd 8db9 45bd cca9 903e ca85 fb3e
00000120: e22f d63d 7f17 e93e 9d94 f13d d0ba 903e
00000130: a314 23bd 7b4b 673e cc88 4f3e c852 2abe
00000140: 6bc2 3cbd a2b7 48be 8b77 853e 2ee5 37be
00000150: 0be0 253e 9f99 f03e 7f99 22be 5a5a 903e
00000160: 6091 c6bd 04b0 e1bc 0420 d33e bc9e c63e
00000170: 11da 7fbe 903c b43e f074 683e 679e 9ebd
00000180: 34d8 62be 4eab adbd bd0b 573e 2ca4 993e
00000190: 3cc1 8b3e a53c 3f3e 4721 643e 3715 b5bd
000001a0: 13d9 c2bd 08f0 643e 4e03 a4be ca7c 023e
000001b0: de19 fa3d 726e 11bd 0eca 763e d5b4 bf3e
000001c0: 6bea 013f 2a77 c13e 4fdd 37bc 4094 b63e
000001d0: 0bb0 2b3e bd97 9c3e 57ef 0a3e 7319 0ebd
000001e0: b02c dd3e 8c65 993d 8152 93bd ff3d d63e
000001f0: e4ca 75bd 4817 dfbd 89de b83d c3e6 57be
00000200: 2019 6c3b 9752 7cbd b0b9 2a3c e8b5 973d
00000210: a78c 68be 7f9a af3e f9d9 16bd 6c93 333e
00000220: c4fb d03d 69ab 823e b9e4 79bc 800e c73c
00000230: 2ce3 79be 8e6f e7bc 8a9e 26bc b781 5f3e
00000240: b7ae 143e 87c6 a93d 80c3 c13e 7e17 f0bd
00000250: d4dd aa3c 1925 f53e 2699 093e 7831 b7bc
00000260: a71d f03e 742a 473d 53a5 1c3e 3487 fe3e
00000270: 48e6 a13e ad0a 45be 42e0 b73e d120 e5bd
00000280: 310b 81be 6c91 86be 5535 b73e 41d9 fcbd
00000290: 74ad 073e 56a7 5b3d fdf3 a33d 44c4 3a3e
000002a0: d64a a43e e13c ff3e 94b1 943e e4e5 27bd
000002b0: fea8 0f3d b6fa 4cbc 5ca2 723e b73c 8c3e
000002c0: b081 c03e 5d73 973e f924 2b3e db10 b23e
000002d0: 3b7e 953e bbcf 37be 5871 cf3b 8262 503e
000002e0: 0c83 413e a33f 4abe dd7b bf3e 2309 0abe
000002f0: 6dfc 70be 4767 db3d 2b0a 1dbd 2a06 75be
00000300: b31c 333e 59e1 dc3e ebb6 433e 0a88 14bb
00000310: d5e4 1f3e 7e2a d3bd 9190 2e3e 7d81 cdbd
00000320: 9a77 4a3d bd23 68be 9452 693e ccbd 49be
00000330: 8a50 323e 6511 f63e c577 2ebe 6a2f 673e
00000340: b459 44be a0eb b8bd 512a 943e 855a 413e
00000350: 2cfe 54bd 65d8 3f3c 1943 743c 2764 a93e
00000360: 7024 a73d 4970 19bd 7408 58be b703 3e3e
00000370: 865e 923d bb33 3f3e 363d 95bd 7aac db3d
00000380: ce50 cb3e 2683 eb3d ca7b a43c ffe2 013e
00000390: 4f8f 2a3e 31d9 5cbd 007a 133d d5a7 1f3e
000003a0: 1048 29be 9033 e53e 62a5 a2bd 2779 393e
000003b0: 6200 b63d fa35 fdbd 69f4 bb3e 48a5 66be
000003c0: d538 403e 9a0c 913e 535e 25be 2d9b af3e
000003d0: 507e 8a3e a3e3 533e 843d dbbe 7fe8 5ebe
000003e0: af62 4bbd 3dc2 98bd fad8 0b3e c237 3abe
000003f0: 16b0 083f 2651 823e ebe2 95bd e1b2 a03e
-0.06921671 -0.0195512 0.3270375 0.42089802 -0.07470722 -0.002103012 0.46559295 0.26730615
-0.06622092 0.1795131 -0.06888908 -0.056973554 0.31302804 0.07505017 -0.03155506 -0.23717234
0.09876501 0.47507834 0.49115115 0.03653356 -0.06728605 0.46191943 0.11607134 0.16677846
-0.07336699 0.49247527 0.011909807 -0.093040064 0.14370893 -0.16173485 0.43044266 0.34900966
0.16484696 -0.0669845 0.27045605 -0.019926324 0.26362368 0.31790867 0.32980672 -0.27424315
-0.20432843 -0.08494485 -0.086152785 -0.19923246 0.38002616 0.39651784 -0.14420423 0.09100774
-0.1578598 0.13793372 0.046245743 0.00564466 -0.07524451 -0.020966485 0.04562164 -0.099827625
-0.23638324 -0.067437395 -0.20712584 0.12302193 0.21340677 0.036675237 0.36434937 -0.18715356
0.21427847 -0.06370867 0.26642862 -0.013609622 -0.083408326 -0.04827266 0.28254545 0.4912551
0.10458352 0.4552574 0.11795924 0.28267527 -0.039814603 0.22587387 0.20267028 -0.16633141
-0.04608385 -0.196013 0.26067767 -0.17958519 0.16198747 0.46992204 -0.15878867 0.28193933
-0.09695697 -0.027549751 0.41235363 0.3879298 -0.2498553 0.35202456 0.22700858 -0.077450566
-0.22152787 -0.084799394 0.21000572 0.30008066 0.27295864 0.18675478 0.2227832 -0.08841937
-0.0951406 0.2235719 -0.3203377 0.12742916 0.12211965 -0.03550572 0.24100515 0.3744265
0.5074832 0.37786227 -0.011222198 0.3565998 0.16766374 0.30584517 0.13567863 -0.03469224
0.43198156 0.07490072 -0.07193471 0.41844174 -0.060007945 -0.108931124 0.0902682 -0.21084122
0.0036025718 -0.0616022 0.010420248 0.07407743 -0.22709905 0.3429756 -0.03682897 0.17536706
0.102042705 0.255214 -0.015252286 0.024298906 -0.24403065 -0.028251436 -0.010169635 0.21826826
0.14519773 0.08289819 0.37844467 -0.11723231 0.020857729 0.47879866 0.13437328 -0.022362456
0.46897623 0.04862447 0.15297441 0.49712527 0.31621003 -0.19242354 0.35913283 -0.111879
-0.2520385 -0.26282823 0.35782877 -0.123461254 0.13249761 0.05362638 0.080055214 0.18238932
0.32088345 0.49851134 0.2904173 -0.040990725 0.035073273 -0.012510946 0.23694748 0.27390072
0.37598944 0.29580203 0.16713323 0.34778485 0.2919787 -0.17950337 0.0063306503 0.20350078
0.18897647 -0.19750838 0.37399188 -0.13480048 -0.23533793 0.10713058 -0.038339775 -0.23928133
0.17491417 0.43140677 0.19112746 -0.0022664093 0.15614636 -0.10310839 0.17047335 -0.100344636
0.049430467 -0.22669883 0.22785407 -0.19701308 0.17413536 0.48060146 -0.17037876 0.22576681
-0.19174844 -0.09029317 0.28938535 0.18882187 -0.05200021 0.011709307 0.014908575 0.33084223
0.08161247 -0.0374606 -0.21096975 0.18556105 0.07146935 0.18672077 -0.07287066 0.10726257
0.39710087 0.11499624 0.020078558 0.12684248 0.1665623 -0.053918067 0.03600502 0.15591367
-0.16531396 0.44765902 -0.079417005 0.18112622 0.08886792 -0.12363811 0.36709908 -0.22523987
0.1877168 0.28329927 -0.16149263 0.34298077 0.27049494 0.20692305 -0.4282037 -0.21768378
-0.04965466 -0.07458923 0.13656989 -0.18185332 0.53393686 0.25452536 -0.07318672 0.31386474

exog_encoder.weight_hh_l0 f4 [32, 8]
00000000: 1cf6 9d3b dbc8 74be 5c66 ddbd fd4e 09bf
00000010: 3a77 82be 0049 44be b0e6 e73e 099b 09be
00000020: 1630 133e 9a19 a1bd f387 f0bd d07b 9cbe
00000030: ca33 d6be d93a ec3d d951 8d3e 384d 80bb
00000040: 27b3 06be 0b2e a7bd 4e64 a03d d4f0 e4be
00000050: aa43 7abc e2a6 dfbe 792b 603e 3cb5 dd3c
00000060: 0747 62be ff24 0a3e 94d9 93be 8048 b738
00000070: 7fd8 40be 7ea2 bdbe 9112 3fbd 5a42 88be
00000080: a158 5cbe 3ad2 bd3d 2946 d83e 1c5b 503d
00000090: 27a9 a9bd 3a7f b9bd fe18 15bd da59 e53b
000000a0: b130 333d 5353 a5be b803 b13e dcca 08bc
000000b0: 50b0 a3bd f1ce e33d 4b48 b33d 90d1 58bd
000000c0: 34ff ed3d 5ce2 943d 9489 b03d d238 37be
000000d0: 626a dabe 6c9f e3be e811 01be 70bc 3c3d
000000e0: faa2 8bbe 295d 01be 366a cabe feb9 e5bd
000000f0: b4f4 063d ae1d 92bd 5a21 d03d a441 5dbe
00000100: c0df 603e 9677 f1be 87d2 bc3d 5ff5 56be
00000110: 0d7e 8fbd 11e6 83bd 472a a03d 2137 993c
00000120: 182d ac3d d6bc b8be f006 853e 44ea 94be
00000130: 0a98 b1be 7d5e 3c3e 92fa 693e d6b8 bb3e
00000140: e8e0 cf3e 47b6 13bd b5c9 6c3e 8d99 3f3d
00000150: e2c9 0d3e e6ce cabd b028 52be c754 903e
00000160: 9741 85be d532 293e 733f 69be bcdc c5bd
00000170: 4938 5d3d 2e32 ddbe 3dc3 ce3e f5a1 173e
00000180: 24e7 19bd 3356 5bbe 99da 273e 410e 4bbe
00000190: de7d 7f3e a44f 0abe 2719 4ebe 485b 6d3d
000001a0: 9df7 af3d 3ade 53be bc5f 03be 4643 95be
000001b0: 0c17 86be 56fb 023d 61f9 103e 91f6 81be
000001c0: c42c 683e c01f b9be 91f7 163e 5420 abbd
000001d0: 30ed e7be 82b4 c7be 3626 f73e 4ff1 d53e
000001e0: 1c98 50be c13b 1c3d 9b7c 273e af22 c83c
000001f0: 3bee 36be 7cba cc39 52c6 bbbe 9434 b23d
00000200: 9150 2e3f 956b 22bf 64a2 1a3f e2b2 fbbe
00000210: d729 98be cc08 a63e 00eb b83e bf77 b63e
00000220: d312 22bf 67d3 103f 0067 95be 35fc c13d
00000230: 32e9 bb3d 4d31 cebe b87b a13c 5327 34be
00000240: bd71 d83e ab94 b4be 0831 253a 7fcc a4bd
00000250: da13 753d 8d40 053e f990 b63e 0ba0 38be
00000260: 7f45 8dbd bbfa f73d e29e 0abf 9af3 583d
00000270: 81cf ce3e 26ee ee3d 16af 75be 4f87 afbe
00000280: 687b abbd 0550 3e3e ef19 c5be 0720 c4bd
00000290: 50e6 c13d 5309 5b3e 87c7 3fbc d2c9 ce3c
000002a0: b71d 1d3f 6ede 6b3d ae45 053e a261 09bf
000002b0: 7add 3c3d baa0 1bbe 06cd 623e d4cf a7bc
000002c0: e0df 273f 39f7 28be d564 303d 0bf5 f7bc
000002d0: f02d fcbe c37f 6f3e b6b8 153f ef42 e93e
000002e0: fef8 20bc 33d6 f53d b4f6 c13e 6351 9bbe
000002f0: 8e51 ebbe 265d 183e ebbb fc3e 4f50 0d3d
00000300: 8993 e5bd eb99 b1be 5a85 e3bd adaa 9ebe
00000310: bdf9 823c dfa7 a9bd 3728 94bc 186f 03be
00000320: b6fb dd3e 403b 103d 59e5 be3e 31e5 8ebd
00000330: daff 42be f7c9 5bbe 4261 f63e c348 f03e
00000340: 8232 21be e43e 8c3c a7e9 a43e 8f3a d6bd
00000350: 97b1 37be 4f83 693d d448 1bbe 9281 813a
00000360: 19b2 4b3e 02e9 7fbe 8ba0 173e a168 e8bd
00000370: fdcc 01be 36ab ddbe 59f2 5f3e 2afd 58be
00000380: adcd 893d 7f47 903e 95d4 663d 3469 d2bd
00000390: cab5 a2bd 1e6e 823d 2b51 973d 053d c73d
000003a0: 629a ec3d 2023 56be 8c18 f43e 1fd1 24be
000003b0: 8437 2fbe 7a48 b0be f261 44bc 0d98 80bb
000003c0: 805f d63e 884c f1be 10ba 833e 33a5 c8be
000003d0: 1af8 9bbe 0489 1abe 7249 ee3e bd20 86bd
000003e0: 9550 cdbe 42a6 843e 6035 e5be 782d cf3b
000003f0: b2bf a33e cc01 853e 6d8e 123e 4ce5 5fbe
0.0048205983 -0.23904745 -0.10810539 -0.5363615 -0.25481588 -0.19168472 0.45293188 -0.13438047
0.14373812 -0.07866211 -0.1174468 -0.3056321 -0.41836387 0.11534662 0.27601507 -0.003915455
-0.13154279 -0.08163079 0.078316316 -0.44714987 -0.015274921 -0.4368201 0.21891584 0.027063958
-0.22097407 0.13490675 -0.28876936 8.739624e-05 -0.18832587 -0.37038034 -0.046648566 -0.26613122
-0.21518184 0.09268613 0.42241028 0.05086814 -0.082842164 -0.0905747 -0.036400788 0.0069992365
0.043747608 -0.32290134 0.3457315 -0.008349147 -0.07992613 0.11123455 0.08754023 -0.05293423
0.11620942 0.07269737 0.08619991 -0.17892769 -0.4265929 -0.44457567 -0.12604487 0.046078146
-0.2727278 -0.12633194 -0.39534158 -0.11217116 0.03294821 -0.07134567 0.10162611 -0.21607071
0.21960354 -0.4716155 0.092198424 -0.20992039 -0.07006464 -0.06440366 0.07820564 0.018703045
0.084070385 -0.3608157 0.25981855 -0.2908498 -0.3468631 0.1839542 0.22849491 0.36664456
0.40601277 -0.036062505 0.2312382 0.046777297 0.13846543 -0.09902744 -0.20523334 0.2818968
-0.26026604 0.16523297 -0.2277811 -0.09661242 0.054008756 -0.43202347 0.4038333 0.14807875
-0.03757395 -0.21419601 0.16391982 -0.19829656 0.24950358 -0.13506943 -0.20126782 0.05794838
0.0859215 -0.20690241 -0.12829489 -0.29152888 -0.26189458 0.031977974 0.1415763 -0.25383428
0.22673327 -0.36157036 0.14742877 -0.083557755 -0.45298147 -0.39004904 0.4827134 0.41785666
-0.20370525 0.038142923 0.16356127 0.0244306 -0.17864315 0.00039048854 -0.36674744 0.08701435
0.68091685 -0.6344541 0.6040404 -0.49159914 -0.2971942 0.32428586 0.3611679 0.35638234
-0.63309973 0.56572574 -0.29180145 0.09471933 0.09175338 -0.4027199 0.019712314 -0.17593126
0.42274275 -0.35269675 0.0006301557 -0.08046817 0.059833385 0.13012905 0.3565748 -0.18029802
-0.06898021 0.1210837 -0.54148686 0.05296669 0.40392688 0.11666517 -0.23992571 -0.3428292
-0.08373147 0.18585213 -0.38496348 -0.09576421 0.09467757 0.21390276 -0.011705286 0.02524272
0.61373466 0.057585172 0.13014862 -0.536646 0.046109654 -0.15198031 0.22148523 -0.020484842
0.6557598 -0.16500558 0.04306491 -0.030268213 -0.49253798 0.23388581 0.5848497 0.4555888
-0.009824989 0.12003746 0.37883532 -0.3033553 -0.4596066 0.14879283 0.4936212 0.034500416
-0.11209781 -0.34687743 -0.11109419 -0.3098959 0.015988225 -0.08283972 -0.018085582 -0.12835348
0.43356103 0.035212755 0.37284353 -0.069773085 -0.19042912 -0.21463762 0.48121077 0.46930513
-0.15741923 0.017119832 0.32209513 -0.10460388 -0.17938839 0.05700999 -0.151645 0.0009880534
0.19892158 -0.24991229 0.14807336 -0.113480814 -0.12675853 -0.43294686 0.21869792 -0.21190324
0.06728683 0.28179547 0.056355078 -0.10273972 -0.0794483 0.063686594 0.073885284 0.097284354
0.11552884 -0.20911837 0.47674978 -0.16095398 -0.17111021 -0.34430295 -0.011986243 -0.003924376
0.41869736 -0.471287 0.25727892 -0.39188537 -0.30462724 -0.1509133 0.4654041 -0.06549213
-0.40100542 0.25908095 -0.44767284 0.006322559 0.3198219 0.25977933 0.14312144 -0.21864814

exog_encoder.weight_ih_l1 f4 [32, 8]
00000000: fa99 bf3d dce3 963e 593d 98be cd64 003f
00000010: 8d97 da3e 246a 533e 9fa1 f5bd bb86 ddbc
00000020: 4d6e 5a3d 8504 11be 7414 763e cc58 20be
00000030: 7590 12bd 479f 5bbd eb66 44be 268e e6ba
00000040: b916 693e 1918 93be 6667 523e 4cbf 63be
00000050: 6df1 563e 116a d1be 5fe8 c93e 2a2d 81bd
00000060: 6187 ffbc b7d7 183d fe79 423e 4aa7 5b3e
00000070: 123b eebc 37e8 bf3e 8af9 ad3d f6ba f13c
00000080: 44d4 77bb 8c9d 54be a1a3 303e 0156 213e
00000090: 04bb adbd a428 c0bc 184d d33d 1749 fa3c
000000a0: af08 84bc e776 8dbe cfe2 8abd 5b9a 7dbe
000000b0: 77d1 74be 12d1 a9be e9ca cfbd b31d 4c3d
000000c0: fb99 0dbe 3935 25bc e0de 15be bb7f 363e
000000d0: 2d0c 493e 06a8 b73e b44a 72be ae37 4bbe
000000e0: 33a9 063e 1bbe d1be 7142 963d 4c6e c23d
000000f0: 6db5 b1be 83f2 45be 9861 f53e ec61 04bd
00000100: db28 d13d cfcb c53e 4e9e e6bd 849d 10bb
00000110: 0f1f 003e 9545 d1be 4f2d 243e 1b27 e5bd
00000120: 460d 14be 5aaa c73e ea21 a63d 3be4 88be
00000130: 5a4f c13e 98f7 a2be 7c36 92be 8741 d63c
00000140: 945b 6dbe b7b1 02be 6611 283e 1341 d2bd
00000150: 1b05 a43e 0dd0 abbe 11a9 1f3e 03e7 9dbd
00000160: ec39 fd3c 1809 12be ebfa 1b3e bfdb b33c
00000170: 66de 88be 5374 de3e a606 dabd 577d 1a3d
00000180: 929e e8bd bd53 afbe 8fda 88bc 9334 adbe
00000190: 7e07 e9be c5a8 823d 7f24 e53e 07b1 f23b
000001a0: f6f4 263d f3ed 383e b7e8 c8be 7238 b83e
000001b0: f06b 593e 218d 94be bf97 95be 83a5 9e3b
000001c0: faaf 553e 9c6f e93c c2e4 91be cb10 133e
000001d0: 31b4 553c e356 523e 3047 da3c a310 4cbd
000001e0: 9836 063d e8ba a23d c153 fbbd 7dd4 e8be
000001f0: dcf5 40be 75e9 bdbe 284e b23e cf82 493d
00000200: a6ae c8be 7c87 cbbd 0248 acbe 4556 ba3d
00000210: 44b6 023e 1d25 3ebe 1ccf e4be c666 ffbd
00000220: 3b7e 81bd 5b97 91bd 36c2 a2bd 1ab8 3d3e
00000230: 97e7 b83d b081 813e 37c3 42be 23bc 2bbe
00000240: fdfb bfbe 364e 023f 47af f6bc 3674 f7bc
00000250: 22a7 db3e 9cc4 4bbb 855c 9ebe 2334 23be
00000260: 5874 b63e 4a59 943e be5c e33e 378d 3ebe
00000270: a8f5 7ebe be3c 9abd 86f0 9b3d 910c 46be
00000280: 01c8 983e f818 06bf 2deb 233c 87f0 bfbe
00000290: 8f89 8dbe 66e7 a5bd 3395 0f3f 1852 8a3e
000002a0: f74a 003e 0d7d ccbe 6072 febd 5421 2c3e
000002b0: ca60 1b3e d364 57be 8864 253e ac92 d53e
000002c0: 9cf1 4dbe 0742 8c3e f1db e4be f711 823e
000002d0: 7bdd bf3e c571 923e 5763 93be 1965 14be
000002e0: 8f8b 0abe a34e b63e 062d bfbe 87e6 003f
000002f0: eb43 643e 87b6 e03d aabf 29be 4065 5d3e
00000300: f682 62bc 8e89 81be c75e 923d 9d76 72be
00000310: ba14 ef3d 7a7e b6be ac80 e93d 5669 433e
00000320: 21c0 a5be 8d40 a83e 6546 7e3d 3ffb 123e
00000330: e082 703e e434 793e a59d 41be 291d aabe
00000340: 8bf9 4bbb c447 253e b3b0 b4be 59bb 55bd
00000350: 1648 8cbe 54cd 093e feaa 34be e669 093e
00000360: f578 a53d bae2 d1be 95a4 993e e4f2 123e
00000370: 1943 5cbe 52f4 b53e 2b97 00be d7f8 a1be
00000380: 1346 babd fb81 e8bd 616a 90be d3e2 9bbe
00000390: 94c2 c23c d3b7 c4bd 06af 65be 7b42 eebd
000003a0: 95c2 f0bd adcc 0e3c add6 1cbe d0bd 553e
000003b0: fc3f 063d dbe2 783d 7ab1 fe3c 08d8 06be
000003c0: ddf7 1dbc dbe8 de3d 9919 4fbe a8a2 21be
000003d0: ec8f 7abe 93a3 a5bd 2914 db3e 00db 6c3d
000003e0: 3233 573e dea5 7abe ad3e 74bd 8e98 353e
000003f0: 461b 88be c0ad 113b 0810 383e 7ce9 f23c
0.093555406 0.29470718 -0.29734305 0.5015381 0.4269375 0.20645958 -0.119937174 -0.027041784
0.053327847 -0.1416188 0.2403124 -0.15658873 -0.035782296 -0.053618696 -0.19179885 -0.0017589971
0.22762574 -0.28729323 0.20547256 -0.22240943 0.20990534 -0.40901235 0.39435098 -0.063074425
-0.031192483 0.037315097 0.18991849 0.21450534 -0.029080901 0.37481853 0.084948614 0.029508095
-0.003781573 -0.20763224 0.1724992 0.15755464 -0.08482936 -0.023456879 0.10317439 0.03055243
-0.016117422 -0.27629778 -0.067815416 -0.24765913 -0.2390803 -0.3316732 -0.10146124 0.04983301
-0.1382827 -0.01008349 -0.14635801 0.17822163 0.19633551 0.3587038 -0.2366131 -0.19845459
0.13150482 -0.4096535 0.073368914 0.09493694 -0.3470873 -0.19330792 0.4792602 -0.032319948
0.10212871 0.38632056 -0.11260663 -0.0022066543 0.12511848 -0.408734 0.16032909 -0.111890994
-0.14458188 0.38997155 0.08111937 -0.26736626 0.37755853 -0.31829524 -0.28557193 0.026154293
-0.23179466 -0.12763105 0.16412887 -0.10266318 0.32035145 -0.33557168 0.15591837 -0.077100776
0.030911408 -0.14261281 0.15232436 0.021955369 -0.26732177 0.43448123 -0.10645799 0.03771719
-0.1135837 -0.34243575 -0.01670578 -0.33829173 -0.4551353 0.063798465 0.44754407 0.007406357
0.040760957 0.1805952 -0.39240047 0.35980564 0.21232581 -0.29013923 -0.29217336 0.004841508
0.20867911 0.028495602 -0.2849484 0.14361875 0.013043449 0.20540957 0.026645273 -0.049820554
0.03276691 0.07945806 -0.12271834 -0.45474616 -0.18843788 -0.37092176 0.34825253 0.049197014
-0.39195746 -0.09937951 -0.33648688 0.09098486 0.12764841 -0.18568845 -0.44689262 -0.12470774
-0.06322905 -0.07108947 -0.07947199 0.1852726 0.09028547 0.25294256 -0.19019781 -0.16770987
-0.3749694 0.5090059 -0.030112876 -0.03020678 0.4290095 -0.003109253 -0.30929962 -0.15937857
0.35635638 0.28974372 0.44406694 -0.18608557 -0.24898398 -0.07531117 0.076142356 -0.19340731
0.2984009 -0.5238185 0.010004801 -0.37488195 -0.2764401 -0.081007764 0.56087035 0.27015758
0.12528597 -0.39939156 -0.12424159 0.16809589 0.15173641 -0.21034555 0.16151631 0.41713464
-0.20111698 0.27394125 -0.44699052 0.2540433 0.37473664 0.28602424 -0.28786728 -0.1449169
-0.135298 0.3560687 -0.37339038 0.50351757 0.22291534 0.10972314 -0.1657702 0.21620655
-0.013825169 -0.25300258 0.071469836 -0.2367806 0.11673875 -0.3564337 0.11401495 0.19083151
-0.32373145 0.32861748 0.062078852 0.14353655 0.23487425 0.24336582 -0.18907793 -0.33225372
-0.003112408 0.16140658 -0.3529106 -0.05218062 -0.27398747 0.13457233 -0.17643353 0.13419303
0.08079711 -0.4099329 0.3000838 0.14350468 -0.2150997 0.35537964 -0.12557666 -0.31635162
-0.09095397 -0.11352917 -0.2820616 -0.3044649 0.023774423 -0.09605374 -0.22430047 -0.11633774
-0.117558636 0.008715791 -0.15316267 0.20873189 0.032775864 0.06076322 0.031090487 -0.13168347
-0.009641615 0.108842574 -0.20224608 -0.15784705 -0.24468964 -0.0808784 0.42788818 0.057826042
0.21015623 -0.24477336 -0.059630085 0.17733976 -0.26583308 0.0022228807 0.17974865 0.02965235

exog_encoder.weight_hh_l1 f4 [32, 8]
00000000: bc99 f33c 1894 f13d 985c 103e bddf 01bf
00000010: 924b 7bbe e209 65be 0c8d 773d 4db7 5f3e
00000020: 3d57 96be d1dd 483e 78b5 74bd 5a2c c0bd
00000030: 18ad 433d 4c57 843e 6038 82be cb6c 863e
00000040: f4c5 ddbe 1033 6ebe 1432 8bbe 3f78 efbd
00000050: f29c ac3e 0d0c b33e e7d2 953d a740 243e
00000060: 3ae7 8e3e 264a acbd 3174 2b3e c0bd 41bd
00000070: c90a 3bbe cf66 383e 17d7 9bbe 411c a7be
00000080: 2358 3e3e c5b6 973e 5db4 6cbe 26d2 71be
00000090: c9fd c3bb 9604 2b3e 8dd3 f3be 5f13 113e
000000a0: 9561 263e 3fc1 8a3e c598 cbbe 993f d6be
000000b0: bada aa3c d8d1 7dbe 9cd0 8abe f183 8f3e
000000c0: 67f2 513e d4c6 7a3e f03c 9ebe 3e50 0a3e
000000d0: 37e2 403e 9b97 2bbe 1027 62be 1444 2dbe
000000e0: 3d33 09bd 1128 8f3e 3c90 643e 62f2 953d
000000f0: 3cee 9fbd 1ef6 9a3d 0d32 573e d62b 273e
00000100: 71ca a2bd 13bd 59be 3f6d 5ebe 099c b8be
00000110: 0d1b a6be b868 debe 5ef4 e53e c402 b5bd
00000120: 100d de3e 451e a3be 9e7c c63d 62e0 533e
00000130: 7944 1abd 7ec0 893d bfc4 583d 6bc4 3ebe
00000140: 585f 9abd af6a 133e 0bcc bbbe b32b 0cbe
00000150: 8d5d 663e 17ca b33e 35da 36be d94b c1be
00000160: 664e 2dbe 7f4a 983e 4413 b7bd a691 933d
00000170: f376 ee3b 5d35 a7bd acc3 d23e 9586 dc3e
00000180: b71e 9fbe 08a6 c4bd ce70 e3bd 3d45 c9be
00000190: 41dd d03e 54ca 9f3e 83e8 693e 9daa 83be
000001a0: 4e60 47bd 630b d93d 11c0 b0be 248e a7be
000001b0: fd42 b43e 3c8e 8abe a0dd a03e fc76 05be
000001c0: 2755 b83e 55c2 413e f01f c93d 1209 223e
000001d0: 82ea 863d 3a83 9fbb be7b 123d 5332 a63e
000001e0: d509 80be e277 133e 9158 80be 4299 0abd
000001f0: 4cb3 aebd 6615 273d c16f fdbd 96c8 55bd
00000200: 2b13 a93e 5b2a bd3e 256a 5a3e 74cb eebd
00000210: b680 80be fae6 cbbe 19b0 b73d 7fb4 97bd
00000220: 794c c23e 1484 80be c7fb 6ebe eee1 153c
00000230: 40f1 253d 707c d23c f07b 443e 698c d6bd
00000240: 4ce7 aa3e efa7 dd3e 5a95 0abe 74f9 26be
00000250: c6be 32be 25db eabd 0eed 84bd 7c09 8b3e
00000260: 424b 5bbd 592d 8dbd 389b 073e 712b 75be
00000270: d662 34bd 1324 28be 0535 473d 5c38 e33d
00000280: 897a 7ebd 589c 1dbe 9c7b 68be a1af 9ebd
00000290: 58f0 bdbd dae3 45ba 3b76 06be f1ca 59be
000002a0: 97c7 01be bf7b 513e 4124 1b3e affd 1bbf
000002b0: 6ed4 a73e d03f ba3e abe3 d5be cf6e b1be
000002c0: 4908 08be 57c4 8bbe c26e 89bc e271 573e
000002d0: c0c6 acbc 4023 e7bc fea2 3f3e 3f96 e53c
000002e0: d80c 1abd 2dcb b03e b140 083f f560 cc3d
000002f0: 9578 acbe 068a d4be 2544 883e f48a 9b3e
00000300: 70d4 bcbe 207d 4d3e bf11 f93c b76e e8bc
00000310: e23e b33e 9d45 d4bb 4374 c13e 58a6 2c3e
00000320: 0806 d13b 26a6 ab3e 2b07 063d 4718 2ebe
00000330: 1cb3 04bf 9ab6 58be 248d aa3e 47ae 013f
00000340: 6196 4abe b218 97be 88b9 a2be 63c2 1fbd
00000350: 06ee 4a3e bdf5 babe 06d8 503e 658f bc3e
00000360: f880 8abc 1a1e c93d d7cd a4be 99f7 7b3e
00000370: 8366 cd3e b706 083e a09d 243c 277e d53d
00000380: 4e2e b2be bee3 8dbe 0ef6 bebe 3848 6ebc
00000390: deab 21be 0618 a33e 94d2 313e 65e9 cabe
000003a0: 8792 c5bd edb8 6a3e a8bc 9e3e e404 953a
000003b0: dc7f 8abc bb24 5bbe 8a45 38be 6fc7 f2bd
000003c0: e3e4 803e ee61 4a3e 01e7 22be 89f4 0e3e
000003d0: 9c2d 993b 5994 a53c 86c6 6b3e 3d12 aabe
000003e0: e0c9 963e 96d6 44bd 9271 05bd 16cf a1bc
000003f0: 1091 43be 1978 95bd 47ea 903e f9b7 333e
0.029736392 0.11795825 0.14097822 -0.5073202 -0.24540547 -0.22367051 0.060437247 0.21847267
-0.29363433 0.19615866 -0.059743375 -0.093834594 0.047772497 0.25847852 -0.25433636 0.26254877
-0.4331509 -0.23261666 -0.27186644 -0.11692857 0.3371349 0.34970132 0.07315617 0.16040288
0.27910787 -0.0841258 0.16743542 -0.0473001 -0.18265833 0.18007968 -0.30437538 -0.32638744
0.18588309 0.2963163 -0.23115678 -0.23615322 -0.0059811813 0.16700968 -0.47622338 0.14167546
0.16248162 0.2710056 -0.3976499 -0.41845396 0.02085625 -0.2478708 -0.2711228 0.2803035
0.20502625 0.2448991 -0.30905867 0.13507172 0.18836294 -0.16757052 -0.22085214 -0.16920501
-0.03349613 0.27960256 0.22320646 0.073216215 -0.078091115 0.075664744 0.21015187 0.16325316
-0.07948769 -0.21263532 -0.21721362 -0.36056545 -0.32442513 -0.4343927 0.44913 -0.08838418
0.4336934 -0.3185903 0.096917376 0.20691064 -0.037662957 0.06726168 0.052922007 -0.18629615
-0.075377166 0.14396165 -0.3667911 -0.13688545 0.22496624 0.3511512 -0.17856677 -0.3775318
-0.16924438 0.29744336 -0.089392215 0.072055146 0.0072773634 -0.08164475 0.4116491 0.43071428
-0.3107812 -0.096019804 -0.111055 -0.39310637 0.40793803 0.31209052 0.22842602 -0.25716105
-0.048675828 0.10597875 -0.34521535 -0.32725632 0.35207358 -0.2706164 0.31419086 -0.1303367
0.36002466 0.18921788 0.09820545 0.15823773 0.065876976 -0.0048679383 0.03576254 0.3246027
-0.250075 0.144012 -0.2506757 -0.033837564 -0.08530292 0.04079189 -0.12374831 -0.052193247
0.33022436 0.36946377 0.21329553 -0.11659899 -0.250982 -0.3982466 0.08969135 -0.07407474
0.3794897 -0.25100768 -0.23338233 0.009148104 0.040513277 0.025694102 0.19187903 -0.10476
0.3337959 0.43292186 -0.13533536 -0.16306096 -0.17455587 -0.1146758 -0.06490527 0.27155674
-0.05353857 -0.06893415 0.13242805 -0.23942353 -0.04403957 -0.16420011 0.048634548 0.11094734
-0.062128577 -0.15391672 -0.22703403 -0.07748342 -0.092743576 -0.0007548906 -0.13131039 -0.21268822
-0.12673794 0.20457362 0.15150549 -0.60933965 0.32779258 0.3637681 -0.4177526 -0.34654853
-0.1328441 -0.27298233 -0.016776446 0.21039537 -0.021090865 -0.02821505 0.1871452 0.028025744
-0.037609905 0.3453001 0.5322371 0.099794306 -0.33685747 -0.41511554 0.2661449 0.3037945
-0.36880827 0.20067263 0.03040397 -0.028373105 0.35008913 -0.006478025 0.37784013 0.1686033
0.006378893 0.335252 0.03272168 -0.17001449 -0.518358 -0.21163407 0.33310807 0.5065655
-0.19783928 -0.2951103 -0.31782174 -0.03900374 0.19817361 -0.36515608 0.20394906 0.3682815
-0.0169072 0.098201945 -0.32188293 0.2460617 0.40117273 0.13283812 0.010047346 0.10424452
-0.34800953 -0.27712816 -0.372971 -0.0145435855 -0.15788218 0.31854266 0.17365485 -0.3963119
-0.096470885 0.22922106 0.31003308 0.0011369255 -0.016906671 -0.2140073 -0.17995277 -0.11854445
0.25174627 0.1976392 -0.15908433 0.1396047 0.0046746265 0.02021234 0.2302495 -0.3321704
0.29450893 -0.048056208 -0.032579012 -0.019752067 -0.19098306 -0.072982974 0.2830374 0.17550649

exog_encoder.weight_ih_l2 f4 [32, 8]
00000000: 5047 bebe 6009 a7be cf69 fa3d 5aa5 8cbe
00000010: f239 a13e 94fb 4ebe 190a 563e 5a3f f73d
00000020: 0a10 61bd eb47 fabd 35b7 12be 4a89 47bd
00000030: 6ff6 363e c758 7ebe f9f3 a1bd 002c 5d3e
00000040: 8f42 133e e9b1 1e3e 8120 b7bd 0f9b 8f3e
00000050: ec51 c4bc 2846 f8bd ef68 8b3e 6481 01be
00000060: 2359 6cbd 4688 82be 4c7d af3e ff16 5a3e
00000070: 373a 60be bbb6 7fbe ac21 a0bd 9ee2 aebd
00000080: 5fa7 db3c 6369 d5bc faf4 76be 71dc 83bd
00000090: b06e c1bd 419e afbe fa47 f23d 2d30 e7bc
000000a0: 0701 57bc 93dd b7be 5234 babe 9190 4a3e
000000b0: bdb0 53be 28dc c53d 2d43 073e 7cbf 093d
000000c0: 7d10 073d c0f3 a03e 6a41 a73e 41a0 e33e
000000d0: 09d7 293e 613e 88be f842 563d fa3b 98be
000000e0: 75d0 0a3e b02f c03e 7a20 0dbb bfca de3d
000000f0: 0706 12bd 701b 5b3b 8541 72be 7e42 b53d
00000100: 1476 553e 7082 ef3d d460 5d3e f1fc aabe
00000110: f390 b03e 33d3 69bd 0e5a 96bc e974 24bd
00000120: b60b aabe ec19 983e 8b26 1abe 33f7 2d3e
00000130: b040 de3d 0dbb 85ba 18f6 03be c216 693e
00000140: 213e 9dbe 97db 67bc 7acd dd3d 0272 813e
00000150: 5480 95be 4b13 2e3e 7cbf 85be 5db0 3fbe
00000160: 3736 8cbe 90d8 9fbe a2ba d3bd 6535 8dbc
00000170: b892 ea3d 61c7 55bd d071 473e d67c c23e
00000180: 2f11 5d3e ca3d 31be ce17 85be f772 513e
00000190: da96 10be 7d0c 56be cfcb fc3d d15d 8fbe
000001a0: 4928 e63d 9656 9d3d b367 5fbe 382f b23e
000001b0: 060c 81be f126 3e3e b155 17be fc60 6fbd
000001c0: 2625 123e 7311 a13e dab0 ba3e df85 093f
000001d0: a377 01bd b980 993d 730e e3bd 914a 813e
000001e0: c2ba 92be 7edc 653e 5ee3 63be c3e4 573e
000001f0: 0de2 78be a706 a7be f8a1 cabe ce00 14bd
00000200: 6795 c4bd 633b 2f3e 8703 aabe a2fe e1be
00000210: b78f 083e 7a9e e73d 8dcc 4cbe 392c 01bd
00000220: 20df dc3e 5c77 fb3d e50b c43e 2e09 5bbe
00000230: d2e2 c9be 70e2 91be 9581 ce3e 7b27 643e
00000240: 4299 c8be f615 a5be bf0e 9dbe 2e31 043c
00000250: f44f d23e a36e 4abe 3561 f4be 129b 53bd
00000260: 0ea0 5ebc f78a 1b3e 746c db3d d755 663e
00000270: c487 663e 34f4 a03e 5c65 dc3d 3524 98be
00000280: 28b9 9bbe 2a80 24be e2d9 5b3e fd2e 7a3e
00000290: a044 83bd 1a5d 85be 92ef 843d 9685 9f3e
000002a0: 0352 8f3e 80af 9b3c dbec 173e 4422 593e
000002b0: e9bf 9bbe 296c 293e 6a93 f13e 146c 083f
000002c0: 8baa 2f3e 2468 e4bd dcac 8fbe 33a7 913e
000002d0: f3bb 12be 91d3 99be d025 c3bd 1072 f0bd
000002e0: 6584 cfbe 374c c5bd e70d 40be 2472 1fbd
000002f0: d6ca fb3e 93bf 963e 1223 f1be 376a f8be
00000300: 6146 0a3e 0aae 043d b1fa b73e bc7a dabc
00000310: b245 1f3e ed7a 22be 3e3f 8c3e 24a5 9cbb
00000320: 4841 ebbd 2c8a edbd 1f8d 64be 774c dfbc
00000330: 1bab 6b3d b584 e63d 5b05 99bd 733b 683e
00000340: 3296 053f 9534 203e ec23 313e 40eb 29be
00000350: 873e f2bc b9e4 d3be 07ef 9e3e 7f2a c2bc
00000360: 0166 843d dc82 db3e a8a5 d53e b344 b43e
00000370: 5969 1fbf c9d9 f53c 7e3e 3a3e 1f1b 0f3f
00000380: eccc 893e fdb2 4d3e 3e5a 1c3f 16b0 d33d
00000390: 6f16 53be 7627 d6be 15c1 e73e 9a76 c13e
000003a0: 64cf 9e3c caf7 e93d 3688 f93e 0572 aabd
000003b0: 3d9f 09bf 1374 e9be 939e 333e 6369 163f
000003c0: b949 aebe fc8d 4fbc 4d5b d1be 6735 803e
000003d0: 3402 9cbd 3285 91be 0747 063e a8b2 15bd
000003e0: 00d6 2abd 584e 313d f47d ae3e ae55 fb3d
000003f0: d8f0 a9be f884 29bd afb2 94be 924e e1bd
-0.37163782 -0.3262434 0.12227213 -0.27469903 0.3148952 -0.20213157 0.2090229 0.1207263
-0.054946937 -0.122207485 -0.143277 -0.048714913 0.17867444 -0.24838553 -0.07907862 0.21598816
0.14380859 0.15497555 -0.089417465 0.28047988 -0.023964845 -0.12122756 0.27228495 -0.12647015
-0.057702195 -0.25494593 0.3427528 0.21297835 -0.21897207 -0.2497205 -0.078189224 -0.085393175
0.026813207 -0.026051229 -0.24116889 -0.0643853 -0.0944494 -0.34300426 0.11830135 -0.028221214
-0.0131228035 -0.35911235 -0.36368042 0.1978171 -0.20672889 0.09661132 0.1320922 0.03362988
0.03297471 0.31435966 0.32667094 0.44458202 0.16585936 -0.2661009 0.05230996 -0.29733258
0.13556083 0.37536383 -0.002153425 0.108785145 -0.03565028 0.0033433102 -0.23657806 0.08850573
0.20845824 0.11694801 0.21618968 -0.33396104 0.34485587 -0.05708618 -0.018353488 -0.040150557
-0.3321206 0.29707277 -0.15053765 0.1698883 0.10852182 -0.001020284 -0.12886846 0.22762588
-0.30711463 -0.014151475 0.10830207 0.25282294 -0.2919947 0.16999547 -0.26122653 -0.18719621
-0.27385113 -0.31219912 -0.10338332 -0.017237375 0.11453766 -0.052192096 0.1947701 0.37985867
0.21588586 -0.17308727 -0.25994724 0.20454012 -0.14120045 -0.20903201 0.12343561 -0.28001264
0.112381525 0.076825306 -0.21816902 0.3480165 -0.25204486 0.18569542 -0.14778782 -0.0584421
0.14271984 0.31458625 0.36463052 0.53719896 -0.031608235 0.07495255 -0.1108674 0.25252202
-0.2865811 0.22447392 -0.22254702 0.2108336 -0.24304982 -0.32622263 -0.39576697 -0.03613358
-0.09598809 0.17112498 -0.33205816 -0.44139582 0.13336073 0.11309524 -0.19999905 -0.031536315
0.4313898 0.12278625 0.38290325 -0.2139022 -0.39430863 -0.2849307 0.40333238 0.22280686
-0.39179426 -0.32243317 -0.30675313 0.008068366 0.41076624 -0.19768767 -0.47730413 -0.05166156
-0.013587965 0.1518973 0.10714045 0.22493683 0.22512728 0.31436312 0.1076152 -0.29715124
-0.304147 -0.16064516 0.21469834 0.24431987 -0.064095736 -0.26047593 0.06491007 0.31156605
0.27992257 0.019004583 0.14836447 0.21204478 -0.30419853 0.16545166 0.4718278 0.53289914
0.171549 -0.11152676 -0.2806157 0.28447875 -0.1432951 -0.30044225 -0.095286965 -0.11740506
-0.40530697 -0.096336775 -0.18755303 -0.038927212 0.4917819 0.29443035 -0.4709707 -0.48518535
0.1350341 0.03239254 0.3593345 -0.026669852 0.1555393 -0.15867205 0.27392 -0.0047804285
-0.11487061 -0.1159862 -0.22319458 -0.027258141 0.057536226 0.112557806 -0.074717246 0.22678928
0.52182305 0.15645058 0.1729886 -0.16593647 -0.029570831 -0.4138544 0.31041738 -0.023701904
0.06464768 0.42873275 0.41727948 0.35208663 -0.6227012 0.030011075 0.18187901 0.5590076
0.26914155 0.2008781 0.610752 0.1033632 -0.20614026 -0.4182698 0.45264497 0.37785798
0.019386 0.11424215 0.48736733 -0.08322529 -0.53758603 -0.4559637 0.1754096 0.5875456
-0.3404062 -0.012668129 -0.4088997 0.25040743 -0.07617608 -0.28421932 0.13113032 -0.036547333
-0.041707993 0.043287605 0.3408047 0.122722015 -0.33191562 -0.041386575 -0.29042575 -0.11001314

exog_encoder.weight_hh_l2 f4 [32, 8]
00000000: c1ae e9bd ce4c 4b3b eb15 3e3e 4a6c e4bd
00000010: d48d 513d 19f5 5b3e 6e6b 803d 7e87 dfbd
00000020: 514e c53c b515 a9be 77b5 3ebe dbc8 d4bc
00000030: 13df 89be ad39 6fbe a542 f63d 7d7a 113e
00000040: d0ec 813e 5ebe 253e 23bd d9bd d08d cd3d
00000050: aac5 3d3d 8fb9 ae3e 6d2e 8a3e d1d3 adbe
00000060: 370e 12be fe94 84be c9b9 8cbe 57e2 263e
00000070: 9af1 88be f4a2 7f3e f82f 7ebb a3e2 953d
00000080: bcdf 4bbe e6cc aebd 2c26 283e fa04 02bd
00000090: b908 2cbc 300b 453e 3793 f7bd 3e70 19be
000000a0: ef93 10bd 3075 b9be 87c9 673e 0621 36bd
000000b0: 4dc0 99be 0a17 39be 88d7 0ebe 59f2 14be
000000c0: d3bf d2be 771f 653c cd31 b73e c9fb e63c
000000d0: c2bd babe c374 9a3e 9205 36be 54df 4dbd
000000e0: 5e76 1a3e ae82 6d3e 00a1 423d af53 dbbd
000000f0: 57c2 19be 3333 a9be c605 03be b69b 8ebe
00000100: a61f 193e 81bb 11be f2d3 aebd e29f 5f3d
00000110: f3c1 c4be c3e6 bebe 7646 38bd e55c cf3e
00000120: 3d37 8b3d 7329 93be 27a6 cc3d e0e9 3b3e
00000130: 72b0 143e 7dba 823d 174c 02bd 7b5f 9bbd
00000140: eef6 583a 62ac b83e 7c96 7f3e 54ad b3be
00000150: 0397 15be 356d de3c 1638 043e 6269 983e
00000160: 60b1 a8bd a1d3 7cbe 5fd0 5bbe b5a0 89be
00000170: 2683 69be a9fa 3e3e 709b 0b3e 0f17 5ebe
00000180: 7ea6 82be 1b32 1f3e 2f7d c53d 0220 8f3e
00000190: 6372 47bd 7beb c93e bec5 a7be 82d8 383e
000001a0: 091b 82be a2f5 b53d 1da8 273e 6f32 413e
000001b0: f0ac 543e b8d6 54bd f142 e7bd 0454 c7bc
000001c0: 002b c7b6 6d5b 35be 4540 54bd 071e ef3d
000001d0: f9df 9cbd e875 1c3d 7816 98be 70a2 88be
000001e0: c0b4 ec3d c947 27be 35bb 2ebe 1981 3fbe
000001f0: 7a55 b33c 7e59 5a3e 5b3d 8d3d 47b8 8b3d
00000200: 61ae 5fbe c1dc 093e d276 143e 40cc 143e
00000210: 1dbc a1be d8a4 02be e546 f43e d664 8e3e
00000220: 9ce7 273e 7db6 3b3e 2340 0e3e b0cb cdbe
00000230: 5e5e f63d 293f 4e3e 6f05 b9be 67ab f2be
00000240: 240b 7e3e 7fef 163e 423c d43e dfdc b43e
00000250: 4c97 f53c 2d62 9dbd 3454 763e 7740 a73e
00000260: 60d8 ae3e 6c48 c4bd e465 913e 8952 02be
00000270: 2015 243e 035d 423d 800c a73e 1fc2 e43e
00000280: 9a34 663e 7dd0 1bbc b877 0ebe 6e55 8a3d
00000290: 666e 403e 0c7b 3f3b 2cb3 883e fbce aabd
000002a0: 351e 2cbe fcfb be3e 9e7d 9ebd 3aab 44be
000002b0: 9ac1 833e bd89 c9bd 6a6e 3abe 22f7 913d
000002c0: 5bcb c0be d1c6 bebd 0b56 2abe 1ac2 2bbd
000002d0: 4445 9cbe 013b 22be c965 aebd 37e0 1abe
000002e0: 2824 643e f3ee 4cbd 3f37 f5bd 5aaa d83e
000002f0: bc7c 37be 4c46 51be 8135 813e b6ca 9f3e
00000300: bdc7 88be c996 293e c6e4 953c 8e65 163e
00000310: 89e1 153e e969 863e a09a 6bbe 4885 7a3e
00000320: e6ea 443e 587f 2fbe 777f 093d 7674 3cbd
00000330: 21a0 c23d 28f4 88be cf59 be3e 491e 583d
00000340: 46c1 1bbe 3acb 733e b49f 06bf c6d1 d53d
00000350: 7f00 ca3e 0b92 563c dafc a0be 534c 03bf
00000360: 6984 0bbf d4a1 053e ed9d c8be 5473 a8be
00000370: c272 f73d fbb5 f03e dc5f 23be d0fc afbd
00000380: d9a3 c0bd 22b2 743d 824e d8be 71eb afbd
00000390: cf23 b73e 73ec d33e 73da 4abe 3cb4 15bf
000003a0: 92f7 0a3e 9d7a de3e 3d6b 603d f9b6 45be
000003b0: 21d3 2dbd 4077 d53e 3ad9 d5be 943e ed3c
000003c0: 5cac 613e 61db 703e 1024 dc39 c22e 3fbe
000003d0: 464a 2d3e f5ba 9bbc 7a0a 223e f713 093e
000003e0: 59a4 aabd d693 03be d169 b9be 9463 e0bd
000003f0: 6b85 823d fd3d 76bd 089e abbd fc87 c43d
-0.11410285 0.003102112 0.18563049 -0.11153467 0.05116065 0.21480216 0.062704906 -0.10914515
0.024085196 -0.33024374 -0.18623911 -0.025974682 -0.26928005 -0.23361845 0.1202443 0.14206882
0.25375986 0.161859 -0.10631778 0.10036814 0.046331085 0.34125945 0.26988545 -0.33950666
-0.14263235 -0.25894922 -0.27485493 0.1629728 -0.26746827 0.24964505 -0.0038785916 0.07318618
-0.19909567 -0.08535175 0.16420811 -0.031743027 -0.0105001265 0.19242549 -0.12088626 -0.14984223
-0.03529733 -0.3622222 0.2263547 -0.044465087 -0.30029526 -0.18075195 -0.13949406 -0.14545573
-0.41161975 0.013984553 0.35780182 0.028196232 -0.364729 0.30167207 -0.17775562 -0.05026181
0.15084216 0.23194382 0.047516823 -0.10709321 -0.15015541 -0.33046874 -0.12795171 -0.27853173
0.14953479 -0.14231683 -0.08536519 0.054595836 -0.38429222 -0.37285432 -0.04498907 0.4050056
0.06797645 -0.2874256 0.099926285 0.18350935 0.14520434 0.06383226 -0.031810846 -0.07586571
0.00082765415 0.36069018 0.24959749 -0.35093176 -0.14608388 0.027151683 0.1291202 0.297679
-0.082369566 -0.24690105 -0.21466206 -0.26880422 -0.22803935 0.18650307 0.13633513 -0.21688484
-0.25517648 0.15546457 0.096430175 0.27954108 -0.048693072 0.3943747 -0.32768053 0.18051341
-0.2541125 0.08884741 0.16372724 0.18866895 0.20769095 -0.051962584 -0.11292065 -0.024332054
-5.935668e-06 -0.17710657 -0.051819105 0.11675649 -0.07659907 0.03819838 -0.29704642 -0.2668643
0.11557913 -0.16335978 -0.17063601 -0.1870159 0.021891344 0.21323201 0.06896468 0.068222575
-0.21843864 0.13463117 0.14498451 0.1453104 -0.31588832 -0.12758195 0.47710338 0.27811307
0.16396946 0.18331333 0.13891654 -0.40194464 0.12029718 0.20141281 -0.36136958 -0.47396395
0.24808937 0.14739798 0.41452223 0.3532476 0.02997937 -0.07684741 0.24055558 0.3266637
0.34149456 -0.09584126 0.2839805 -0.12726797 0.16023684 0.047451984 0.32626724 0.44679353
0.22481003 -0.009510157 -0.13912857 0.06754576 0.18792114 0.0029217629 0.26699197 -0.0834026
-0.16808398 0.37301624 -0.07738803 -0.19205943 0.25733644 -0.098407246 -0.18206182 0.07127215
-0.37655148 -0.09315265 -0.16634385 -0.041933157 -0.30521595 -0.1584282 -0.08515508 -0.15124594
0.22279418 -0.050032567 -0.11973428 0.42317468 -0.17918676 -0.20436972 0.25236133 0.31209344
-0.26714888 0.16561426 0.018297564 0.14687178 0.14636816 0.26252678 -0.23008204 0.24464905
0.19230232 -0.17138422 0.033568826 -0.046009503 0.095031984 -0.26748776 0.37177894 0.052763257
-0.15210447 0.23807994 -0.5258744 0.10440402 0.39453503 0.013096343 -0.3144291 -0.51288337
-0.54498917 0.13050014 -0.39182988 -0.32900488 0.12082435 0.4701384 -0.15954536 -0.08593142
-0.094062515 0.059740193 -0.42247397 -0.08589829 0.35769507 0.41391334 -0.19809894 -0.5847814
0.13571003 0.43452922 0.05478977 -0.1930808 -0.042437676 0.41692543 -0.41767293 0.028960504
0.22038406 0.23521186 0.0004198854 -0.1867018 0.16922864 -0.019010046 0.15824309 0.13386522
-0.08332128 -0.12849364 -0.36213544 -0.10956493 0.06373104 -0.06011771 -0.083797514 0.095962495
